…
  "dropout": 0.2,
  "num_channels": [
    160,
    192,
    224,
    256,
    256
  ],
  "features": [
    "atr14",
    "atr5",
    "parkinson20",
    "vol_z20",
    "rsi5",
    "stoch_spread",
    "willr14",
    "ema5",
    "roc5",
    "macd_hist",
    "vwap20",
    "obv",
    "cmf20",
    "cci20",
    "turnover",
    "turnover_rank_prev1",
    "turnover_ratio_1d"
  ],
  "device": "cuda",
  "focal_loss_alpha": 1.0,
  "focal_loss_gamma": 2.0,
  "training_history": {
    "model": "EventDetectorTCN(\n  (tcn): TemporalConvNet(\n    (network): Sequential(\n      (0): TemporalBlock(\n        (conv1): Conv1d(17, 160, kernel_size=(2,), stride=(1,), padding=(1,))\n        (chomp1): Chomp1d()\n        (relu1): ReLU()\n        (dropout1): Dropout(p=0.2, inplace=False)\n        (conv2): Conv1d(160, 160, kernel_size=(2,), stride=(1,), padding=(1,))\n        (chomp2): Chomp1d()\n        (relu2): ReLU()\n        (dropout2): Dropout(p=0.2, inplace=False)\n        (net): Sequential(\n          (0): Conv1d(17, 160, kernel_size=(2,), stride=(1,), padding=(1,))\n          (1): Chomp1d()\n          (2): ReLU()\n          (3): Dropout(p=0.2, inplace=False)\n          (4): Conv1d(160, 160, kernel_size=(2,), stride=(1,), padding=(1,))\n          (5): Chomp1d()\n          (6): ReLU()\n          (7): Dropout(p=0.2, inplace=False)\n        )\n        (downsample): Conv1d(17, 160, kernel_size=(1,), stride=(1,))\n        (relu): ReLU()\n      )\n      (1): TemporalBlock(\n        (conv1): Conv1d(160, 192, kernel_size=(2,), stride=(1,), padding=(2,), dilation=(2,))\n        (chomp1): Chomp1d()\n        (relu1): ReLU()\n        (dropout1): Dropout(p=0.2, inplace=False)\n        (conv2): Conv1d(192, 192, kernel_size=(2,), stride=(1,), padding=(2,), dilation=(2,))\n        (chomp2): Chomp1d()\n        (relu2): ReLU()\n        (dropout2): Dropout(p=0.2, inplace=False)\n        (net): Sequential(\n          (0): Conv1d(160, 192, kernel_size=(2,), stride=(1,), padding=(2,), dilation=(2,))\n          (1): Chomp1d()\n          (2): ReLU()\n          (3): Dropout(p=0.2, inplace=False)\n          (4): Conv1d(192, 192, kernel_size=(2,), stride=(1,), padding=(2,), dilation=(2,))\n          (5): Chomp1d()\n          (6): ReLU()\n          (7): Dropout(p=0.2, inplace=False)\n        )\n        (downsample): Conv1d(160, 192, kernel_size=(1,), stride=(1,))\n        (relu): ReLU()\n      )\n      (2): TemporalBlock(\n        (conv1): Conv1d(192, 224, kernel_size=(2,), stride=(1,), padding=(4,), dilation=(4,))\n        (chomp1): Chomp1d()\n        (relu1): ReLU()\n        (dropout1): Dropout(p=0.2, inplace=False)\n        (conv2): Conv1d(224, 224, kernel_size=(2,), stride=(1,), padding=(4,), dilation=(4,))\n        (chomp2): Chomp1d()\n        (relu2): ReLU()\n        (dropout2): Dropout(p=0.2, inplace=False)\n        (net): Sequential(\n          (0): Conv1d(192, 224, kernel_size=(2,), stride=(1,), padding=(4,), dilation=(4,))\n          (1): Chomp1d()\n          (2): ReLU()\n          (3): Dropout(p=0.2, inplace=False)\n          (4): Conv1d(224, 224, kernel_size=(2,), stride=(1,), padding=(4,), dilation=(4,))\n          (5): Chomp1d()\n          (6): ReLU()\n          (7): Dropout(p=0.2, inplace=False)\n        )\n        (downsample): Conv1d(192, 224, kernel_size=(1,), stride=(1,))\n        (relu): ReLU()\n      )\n      (3): TemporalBlock(\n        (conv1): Conv1d(224, 256, kernel_size=(2,), stride=(1,), padding=(8,), dilation=(8,))\n        (chomp1): Chomp1d()\n        (relu1): ReLU()\n        (dropout1): Dropout(p=0.2, inplace=False)\n        (conv2): Conv1d(256, 256, kernel_size=(2,), stride=(1,), padding=(8,), dilation=(8,))\n        (chomp2): Chomp1d()\n        (relu2): ReLU()\n        (dropout2): Dropout(p=0.2, inplace=False)\n        (net): Sequential(\n          (0): Conv1d(224, 256, kernel_size=(2,), stride=(1,), padding=(8,), dilation=(8,))\n          (1): Chomp1d()\n          (2): ReLU()\n          (3): Dropout(p=0.2, inplace=False)\n          (4): Conv1d(256, 256, kernel_size=(2,), stride=(1,), padding=(8,), dilation=(8,))\n          (5): Chomp1d()\n          (6): ReLU()\n          (7): Dropout(p=0.2, inplace=False)\n        )\n        (downsample): Conv1d(224, 256, kernel_size=(1,), stride=(1,))\n        (relu): ReLU()\n      )\n      (4): TemporalBlock(\n        (conv1): Conv1d(256, 256, kernel_size=(2,), stride=(1,), padding=(16,), dilation=(16,))\n        (chomp1): Chomp1d()\n        (relu1): ReLU()\n        (dropout1): Dropout(p=0.2, inplace=False)\n        (conv2): Conv1d(256, 256, kernel_size=(2,), stride=(1,), padding=(16,), dilation=(16,))\n        (chomp2): Chomp1d()\n        (relu2): ReLU()\n        (dropout2): Dropout(p=0.2, inplace=False)\n        (net): Sequential(\n          (0): Conv1d(256, 256, kernel_size=(2,), stride=(1,), padding=(16,), dilation=(16,))\n          (1): Chomp1d()\n          (2): ReLU()\n          (3): Dropout(p=0.2, inplace=False)\n          (4): Conv1d(256, 256, kernel_size=(2,), stride=(1,), padding=(16,), dilation=(16,))\n          (5): Chomp1d()\n          (6): ReLU()\n          (7): Dropout(p=0.2, inplace=False)\n        )\n        (relu): ReLU()\n      )\n    )\n  )\n  (classifier): Sequential(\n    (0): Linear(in_features=256, out_features=128, bias=True)\n    (1): ReLU()\n    (2): Dropout(p=0.2, inplace=False)\n    (3): Linear(in_features=128, out_features=64, bias=True)\n    (4): ReLU()\n    (5): Dropout(p=0.2, inplace=False)\n    (6): Linear(in_features=64, out_features=2, bias=True)\n  )\n)",
    "features": [
      "atr14",
      "atr5",
      "parkinson20",
      "vol_z20",
      "rsi5",
      "stoch_spread",
      "willr14",
      "ema5",
      "roc5",
      "macd_hist",
      "vwap20",
      "obv",
      "cmf20",
      "cci20",
      "turnover",
      "turnover_rank_prev1",
      "turnover_ratio_1d"
    ],
    "target": "big_move_event",
…
